…
INFO - 12/15/22 10:58:08 - 0:00:35 - module.layer4.2.bn3.bias	torch.Size([2048])
INFO - 12/15/22 10:58:08 - 0:00:35 - module.layer4.2.bn3.running_mean	torch.Size([2048])
INFO - 12/15/22 10:58:08 - 0:00:35 - module.layer4.2.bn3.running_var	torch.Size([2048])
INFO - 12/15/22 10:58:08 - 0:00:35 - module.layer4.2.bn3.num_batches_tracked	torch.Size([])
INFO - 12/15/22 10:58:08 - 0:00:35 - info.model:
INFO - 12/15/22 10:58:08 - 0:00:35 - DataParallel(
                                       (module): ResNet(
                                         (padding): ConstantPad2d(padding=(1, 1, 1, 1), value=0.0)
                                         (conv1): Conv2d(3, 64, kernel_size=(7, 7), stride=(2, 2), padding=(2, 2), bias=False)
                                         (bn1): BatchNorm2d(64, eps=1e-05, momentum=0.1, affine=True, track_running_stats=True)
                                         (relu): ReLU(inplace=True)
                                         (maxpool): MaxPool2d(kernel_size=3, stride=2, padding=1, dilation=1, ceil_mode=False)
                                         (layer1): Sequential(
                                           (0): Bottleneck(
                                             (conv1): Conv2d(64, 64, kernel_size=(1, 1), stride=(1, 1), bias=False)
                                             (bn1): BatchNorm2d(64, eps=1e-05, momentum=0.1, affine=True, track_running_stats=True)
                                             (conv2): Conv2d(64, 64, kernel_size=(3, 3), stride=(1, 1), padding=(1, 1), bias=False)
                                             (bn2): BatchNorm2d(64, eps=1e-05, momentum=0.1, affine=True, track_running_stats=True)
                                             (conv3): Conv2d(64, 256, kernel_size=(1, 1), stride=(1, 1), bias=False)
                                             (bn3): BatchNorm2d(256, eps=1e-05, momentum=0.1, affine=True, track_running_stats=True)
                                             (relu): ReLU(inplace=True)
                                             (downsample): Sequential(
                                               (0): Conv2d(64, 256, kernel_size=(1, 1), stride=(1, 1), bias=False)
                                               (1): BatchNorm2d(256, eps=1e-05, momentum=0.1, affine=True, track_running_stats=True)
                                             )
                                           )
                                           (1): Bottleneck(
                                             (conv1): Conv2d(256, 64, kernel_size=(1, 1), stride=(1, 1), bias=False)
                                             (bn1): BatchNorm2d(64, eps=1e-05, momentum=0.1, affine=True, track_running_stats=True)
                                             (conv2): Conv2d(64, 64, kernel_size=(3, 3), stride=(1, 1), padding=(1, 1), bias=False)
                                             (bn2): BatchNorm2d(64, eps=1e-05, momentum=0.1, affine=True, track_running_stats=True)
                                             (conv3): Conv2d(64, 256, kernel_size=(1, 1), stride=(1, 1), bias=False)
                                             (bn3): BatchNorm2d(256, eps=1e-05, momentum=0.1, affine=True, track_running_stats=True)
                                             (relu): ReLU(inplace=True)
                                           )
                                           (2): Bottleneck(
                                             (conv1): Conv2d(256, 64, kernel_size=(1, 1), stride=(1, 1), bias=False)
                                             (bn1): BatchNorm2d(64, eps=1e-05, momentum=0.1, affine=True, track_running_stats=True)
                                             (conv2): Conv2d(64, 64, kernel_size=(3, 3), stride=(1, 1), padding=(1, 1), bias=False)
                                             (bn2): BatchNorm2d(64, eps=1e-05, momentum=0.1, affine=True, track_running_stats=True)
                                             (conv3): Conv2d(64, 256, kernel_size=(1, 1), stride=(1, 1), bias=False)
                                             (bn3): BatchNorm2d(256, eps=1e-05, momentum=0.1, affine=True, track_running_stats=True)
                                             (relu): ReLU(inplace=True)
                                           )
                                         )
                                         (layer2): Sequential(
                                           (0): Bottleneck(
                                             (conv1): Conv2d(256, 128, kernel_size=(1, 1), stride=(1, 1), bias=False)
                                             (bn1): BatchNorm2d(128, eps=1e-05, momentum=0.1, affine=True, track_running_stats=True)
                                             (conv2): Conv2d(128, 128, kernel_size=(3, 3), stride=(2, 2), padding=(1, 1), bias=False)
                                             (bn2): BatchNorm2d(128, eps=1e-05, momentum=0.1, affine=True, track_running_stats=True)
                                             (conv3): Conv2d(128, 512, kernel_size=(1, 1), stride=(1, 1), bias=False)
                                             (bn3): BatchNorm2d(512, eps=1e-05, momentum=0.1, affine=True, track_running_stats=True)
                                             (relu): ReLU(inplace=True)
                                             (downsample): Sequential(
                                               (0): Conv2d(256, 512, kernel_size=(1, 1), stride=(2, 2), bias=False)
                                               (1): BatchNorm2d(512, eps=1e-05, momentum=0.1, affine=True, track_running_stats=True)
                                             )
                                           )
                                           (1): Bottleneck(
                                             (conv1): Conv2d(512, 128, kernel_size=(1, 1), stride=(1, 1), bias=False)
                                             (bn1): BatchNorm2d(128, eps=1e-05, momentum=0.1, affine=True, track_running_stats=True)
                                             (conv2): Conv2d(128, 128, kernel_size=(3, 3), stride=(1, 1), padding=(1, 1), bias=False)
                                             (bn2): BatchNorm2d(128, eps=1e-05, momentum=0.1, affine=True, track_running_stats=True)
                                             (conv3): Conv2d(128, 512, kernel_size=(1, 1), stride=(1, 1), bias=False)
                                             (bn3): BatchNorm2d(512, eps=1e-05, momentum=0.1, affine=True, track_running_stats=True)
                                             (relu): ReLU(inplace=True)
                                           )
                                           (2): Bottleneck(
                                             (conv1): Conv2d(512, 128, kernel_size=(1, 1), stride=(1, 1), bias=False)
                                             (bn1): BatchNorm2d(128, eps=1e-05, momentum=0.1, affine=True, track_running_stats=True)
                                             (conv2): Conv2d(128, 128, kernel_size=(3, 3), stride=(1, 1), padding=(1, 1), bias=False)
                                             (bn2): BatchNorm2d(128, eps=1e-05, momentum=0.1, affine=True, track_running_stats=True)
                                             (conv3): Conv2d(128, 512, kernel_size=(1, 1), stride=(1, 1), bias=False)
                                             (bn3): BatchNorm2d(512, eps=1e-05, momentum=0.1, affine=True, track_running_stats=True)
                                             (relu): ReLU(inplace=True)
                                           )
                                           (3): Bottleneck(
                                             (conv1): Conv2d(512, 128, kernel_size=(1, 1), stride=(1, 1), bias=False)
                                             (bn1): BatchNorm2d(128, eps=1e-05, momentum=0.1, affine=True, track_running_stats=True)
                                             (conv2): Conv2d(128, 128, kernel_size=(3, 3), stride=(1, 1), padding=(1, 1), bias=False)
                                             (bn2): BatchNorm2d(128, eps=1e-05, momentum=0.1, affine=True, track_running_stats=True)
                                             (conv3): Conv2d(128, 512, kernel_size=(1, 1), stride=(1, 1), bias=False)
                                             (bn3): BatchNorm2d(512, eps=1e-05, momentum=0.1, affine=True, track_running_stats=True)
                                             (relu): ReLU(inplace=True)
                                           )
                                         )
                                         (layer3): Sequential(
                                           (0): Bottleneck(
                                             (conv1): Conv2d(512, 256, kernel_size=(1, 1), stride=(1, 1), bias=False)
                                             (bn1): BatchNorm2d(256, eps=1e-05, momentum=0.1, affine=True, track_running_stats=True)
                                             (conv2): Conv2d(256, 256, kernel_size=(3, 3), stride=(2, 2), padding=(1, 1), bias=False)
                                             (bn2): BatchNorm2d(256, eps=1e-05, momentum=0.1, affine=True, track_running_stats=True)
                                             (conv3): Conv2d(256, 1024, kernel_size=(1, 1), stride=(1, 1), bias=False)
                                             (bn3): BatchNorm2d(1024, eps=1e-05, momentum=0.1, affine=True, track_running_stats=True)
                                             (relu): ReLU(inplace=True)
                                             (downsample): Sequential(
                                               (0): Conv2d(512, 1024, kernel_size=(1, 1), stride=(2, 2), bias=False)
                                               (1): BatchNorm2d(1024, eps=1e-05, momentum=0.1, affine=True, track_running_stats=True)
                                             )
                                           )
                                           (1): Bottleneck(
                                             (conv1): Conv2d(1024, 256, kernel_size=(1, 1), stride=(1, 1), bias=False)
                                             (bn1): BatchNorm2d(256, eps=1e-05, momentum=0.1, affine=True, track_running_stats=True)
                                             (conv2): Conv2d(256, 256, kernel_size=(3, 3), stride=(1, 1), padding=(1, 1), bias=False)
                                             (bn2): BatchNorm2d(256, eps=1e-05, momentum=0.1, affine=True, track_running_stats=True)
                                             (conv3): Conv2d(256, 1024, kernel_size=(1, 1), stride=(1, 1), bias=False)
                                             (bn3): BatchNorm2d(1024, eps=1e-05, momentum=0.1, affine=True, track_running_stats=True)
                                             (relu): ReLU(inplace=True)
                                           )
                                           (2): Bottleneck(
                                             (conv1): Conv2d(1024, 256, kernel_size=(1, 1), stride=(1, 1), bias=False)
                                             (bn1): BatchNorm2d(256, eps=1e-05, momentum=0.1, affine=True, track_running_stats=True)
                                             (conv2): Conv2d(256, 256, kernel_size=(3, 3), stride=(1, 1), padding=(1, 1), bias=False)
                                             (bn2): BatchNorm2d(256, eps=1e-05, momentum=0.1, affine=True, track_running_stats=True)
                                             (conv3): Conv2d(256, 1024, kernel_size=(1, 1), stride=(1, 1), bias=False)
                                             (bn3): BatchNorm2d(1024, eps=1e-05, momentum=0.1, affine=True, track_running_stats=True)
                                             (relu): ReLU(inplace=True)
                                           )
                                           (3): Bottleneck(
                                             (conv1): Conv2d(1024, 256, kernel_size=(1, 1), stride=(1, 1), bias=False)
                                             (bn1): BatchNorm2d(256, eps=1e-05, momentum=0.1, affine=True, track_running_stats=True)
                                             (conv2): Conv2d(256, 256, kernel_size=(3, 3), stride=(1, 1), padding=(1, 1), bias=False)
                                             (bn2): BatchNorm2d(256, eps=1e-05, momentum=0.1, affine=True, track_running_stats=True)
                                             (conv3): Conv2d(256, 1024, kernel_size=(1, 1), stride=(1, 1), bias=False)
                                             (bn3): BatchNorm2d(1024, eps=1e-05, momentum=0.1, affine=True, track_running_stats=True)
                                             (relu): ReLU(inplace=True)
                                           )
                                           (4): Bottleneck(
                                             (conv1): Conv2d(1024, 256, kernel_size=(1, 1), stride=(1, 1), bias=False)
                                             (bn1): BatchNorm2d(256, eps=1e-05, momentum=0.1, affine=True, track_running_stats=True)
                                             (conv2): Conv2d(256, 256, kernel_size=(3, 3), stride=(1, 1), padding=(1, 1), bias=False)
                                             (bn2): BatchNorm2d(256, eps=1e-05, momentum=0.1, affine=True, track_running_stats=True)
                                             (conv3): Conv2d(256, 1024, kernel_size=(1, 1), stride=(1, 1), bias=False)
                                             (bn3): BatchNorm2d(1024, eps=1e-05, momentum=0.1, affine=True, track_running_stats=True)
                                             (relu): ReLU(inplace=True)
                                           )
                                           (5): Bottleneck(
                                             (conv1): Conv2d(1024, 256, kernel_size=(1, 1), stride=(1, 1), bias=False)
                                             (bn1): BatchNorm2d(256, eps=1e-05, momentum=0.1, affine=True, track_running_stats=True)
                                             (conv2): Conv2d(256, 256, kernel_size=(3, 3), stride=(1, 1), padding=(1, 1), bias=False)
                                             (bn2): BatchNorm2d(256, eps=1e-05, momentum=0.1, affine=True, track_running_stats=True)
                                             (conv3): Conv2d(256, 1024, kernel_size=(1, 1), stride=(1, 1), bias=False)
                                             (bn3): BatchNorm2d(1024, eps=1e-05, momentum=0.1, affine=True, track_running_stats=True)
                                             (relu): ReLU(inplace=True)
                                           )
                                         )
                                         (layer4): Sequential(
                                           (0): Bottleneck(
                                             (conv1): Conv2d(1024, 512, kernel_size=(1, 1), stride=(1, 1), bias=False)
                                             (bn1): BatchNorm2d(512, eps=1e-05, momentum=0.1, affine=True, track_running_stats=True)
                                             (conv2): Conv2d(512, 512, kernel_size=(3, 3), stride=(2, 2), padding=(1, 1), bias=False)
                                             (bn2): BatchNorm2d(512, eps=1e-05, momentum=0.1, affine=True, track_running_stats=True)
                                             (conv3): Conv2d(512, 2048, kernel_size=(1, 1), stride=(1, 1), bias=False)
                                             (bn3): BatchNorm2d(2048, eps=1e-05, momentum=0.1, affine=True, track_running_stats=True)
                                             (relu): ReLU(inplace=True)
                                             (downsample): Sequential(
                                               (0): Conv2d(1024, 2048, kernel_size=(1, 1), stride=(2, 2), bias=False)
                                               (1): BatchNorm2d(2048, eps=1e-05, momentum=0.1, affine=True, track_running_stats=True)
                                             )
                                           )
                                           (1): Bottleneck(
                                             (conv1): Conv2d(2048, 512, kernel_size=(1, 1), stride=(1, 1), bias=False)
                                             (bn1): BatchNorm2d(512, eps=1e-05, momentum=0.1, affine=True, track_running_stats=True)
                                             (conv2): Conv2d(512, 512, kernel_size=(3, 3), stride=(1, 1), padding=(1, 1), bias=False)
                                             (bn2): BatchNorm2d(512, eps=1e-05, momentum=0.1, affine=True, track_running_stats=True)
                                             (conv3): Conv2d(512, 2048, kernel_size=(1, 1), stride=(1, 1), bias=False)
                                             (bn3): BatchNorm2d(2048, eps=1e-05, momentum=0.1, affine=True, track_running_stats=True)
                                             (relu): ReLU(inplace=True)
                                           )
                                           (2): Bottleneck(
                                             (conv1): Conv2d(2048, 512, kernel_size=(1, 1), stride=(1, 1), bias=False)
                                             (bn1): BatchNorm2d(512, eps=1e-05, momentum=0.1, affine=True, track_running_stats=True)
                                             (conv2): Conv2d(512, 512, kernel_size=(3, 3), stride=(1, 1), padding=(1, 1), bias=False)
                                             (bn2): BatchNorm2d(512, eps=1e-05, momentum=0.1, affine=True, track_running_stats=True)
                                             (conv3): Conv2d(512, 2048, kernel_size=(1, 1), stride=(1, 1), bias=False)
                                             (bn3): BatchNorm2d(2048, eps=1e-05, momentum=0.1, affine=True, track_running_stats=True)
                                             (relu): ReLU(inplace=True)
                                           )
                                         )
                                         (avgpool): AdaptiveAvgPool2d(output_size=(1, 1))
                                       )
                                     )
INFO - 12/15/22 10:58:11 - 0:00:39 - Epoch[0] - Iter: [0/20019]	Time 28.462 (28.462)	Data 24.341 (24.341)	Loss 6.9162 (6.9162)	Prec 0.000 (0.000)	LR 0.3
…
