…
INFO - 12/14/22 16:30:33 - 0:00:10 - Load pretrained model with msg: _IncompatibleKeys(missing_keys=[], unexpected_keys=['module.projection_head.0.weight', 'module.projection_head.0.bias', 'module.projection_head.1.weight', 'module.projection_head.1.bias', 'module.projection_head.1.running_mean', 'module.projection_head.1.running_var', 'module.projection_head.1.num_batches_tracked', 'module.projection_head.3.weight', 'module.projection_head.3.bias', 'module.prototypes.weight'])
INFO - 12/14/22 16:30:33 - 0:00:10 - ============ Starting epoch 0 ... ============
===============================================================================================
Layer (type:depth-idx)                        Output Shape              Param #
===============================================================================================
DataParallel                                  [32, 2048, 7, 7]          --
├─ResNet: 1-1                                 [16, 2048, 7, 7]          23,508,032
├─ResNet: 1-2                                 [16, 2048, 7, 7]          --
├─ResNet: 1-3                                 --                        --
│    └─ConstantPad2d: 2-1                     [16, 3, 226, 226]         --
│    └─Conv2d: 2-2                            [16, 64, 112, 112]        9,408
│    └─ConstantPad2d: 2-3                     [16, 3, 226, 226]         --
│    └─Conv2d: 2-4                            [16, 64, 112, 112]        --
│    └─BatchNorm2d: 2-5                       [16, 64, 112, 112]        128
│    └─ReLU: 2-6                              [16, 64, 112, 112]        --
│    └─MaxPool2d: 2-7                         [16, 64, 56, 56]          --
│    └─Sequential: 2-8                        [16, 256, 56, 56]         215,808
│    └─Sequential: 2-26                       --                        (recursive)
│    │    └─Bottleneck: 3-1                   [16, 256, 56, 56]         75,008
│    │    └─Bottleneck: 3-24                  --                        (recursive)
│    │    └─Bottleneck: 3-3                   [16, 256, 56, 56]         70,400
│    │    └─Bottleneck: 3-28                  --                        (recursive)
│    │    └─Bottleneck: 3-5                   [16, 256, 56, 56]         70,400
│    │    └─Bottleneck: 3-30                  --                        (recursive)
│    └─Sequential: 2-10                       [16, 512, 28, 28]         1,219,584
│    └─Sequential: 2-38                       --                        (recursive)
│    │    └─Bottleneck: 3-7                   [16, 512, 28, 28]         379,392
│    │    └─Bottleneck: 3-50                  --                        (recursive)
│    └─BatchNorm2d: 2-12                      [16, 64, 112, 112]        --
│    └─ReLU: 2-13                             [16, 64, 112, 112]        --
│    └─MaxPool2d: 2-14                        [16, 64, 56, 56]          --
│    └─Sequential: 2-15                       [16, 256, 56, 56]         --
│    └─Sequential: 2-26                       --                        (recursive)
│    │    └─Bottleneck: 3-9                   [16, 256, 56, 56]         --
│    │    └─Bottleneck: 3-24                  --                        (recursive)
│    └─Sequential: 2-38                       --                        (recursive)
│    │    └─Bottleneck: 3-50                  --                        (recursive)
│    └─Sequential: 2-26                       --                        (recursive)
│    │    └─Bottleneck: 3-24                  --                        (recursive)
│    └─Sequential: 2-38                       --                        (recursive)
│    │    └─Bottleneck: 3-50                  --                        (recursive)
│    │    └─Bottleneck: 3-14                  [16, 512, 28, 28]         280,064
│    │    └─Bottleneck: 3-54                  --                        (recursive)
│    └─Sequential: 2-26                       --                        (recursive)
│    │    └─Bottleneck: 3-24                  --                        (recursive)
│    └─Sequential: 2-38                       --                        (recursive)
│    │    └─Bottleneck: 3-54                  --                        (recursive)
│    │    └─Bottleneck: 3-18                  [16, 512, 28, 28]         280,064
│    │    └─Bottleneck: 3-56                  --                        (recursive)
│    │    └─Bottleneck: 3-20                  [16, 512, 28, 28]         280,064
│    │    └─Bottleneck: 3-58                  --                        (recursive)
│    └─Sequential: 2-22                       [16, 1024, 14, 14]        7,098,368
│    └─Sequential: 2-46                       --                        (recursive)
│    │    └─Bottleneck: 3-22                  [16, 1024, 14, 14]        1,512,448
│    │    └─Bottleneck: 3-64                  --                        (recursive)
│    └─Sequential: 2-26                       --                        (recursive)
│    │    └─Bottleneck: 3-24                  --                        (recursive)
│    │    └─Bottleneck: 3-25                  [16, 256, 56, 56]         --
│    │    └─Bottleneck: 3-28                  --                        (recursive)
│    └─Sequential: 2-46                       --                        (recursive)
│    │    └─Bottleneck: 3-64                  --                        (recursive)
│    └─Sequential: 2-26                       --                        (recursive)
│    │    └─Bottleneck: 3-28                  --                        (recursive)
│    │    └─Bottleneck: 3-29                  [16, 256, 56, 56]         --
│    │    └─Bottleneck: 3-30                  --                        (recursive)
│    └─Sequential: 2-27                       [16, 512, 28, 28]         --
│    └─Sequential: 2-38                       --                        (recursive)
│    │    └─Bottleneck: 3-31                  [16, 512, 28, 28]         --
│    │    └─Bottleneck: 3-50                  --                        (recursive)
│    └─Sequential: 2-46                       --                        (recursive)
│    │    └─Bottleneck: 3-64                  --                        (recursive)
│    │    └─Bottleneck: 3-34                  [16, 1024, 14, 14]        1,117,184
│    │    └─Bottleneck: 3-70                  --                        (recursive)
│    └─Sequential: 2-38                       --                        (recursive)
│    │    └─Bottleneck: 3-50                  --                        (recursive)
│    └─Sequential: 2-46                       --                        (recursive)
│    │    └─Bottleneck: 3-70                  --                        (recursive)
│    │    └─Bottleneck: 3-38                  [16, 1024, 14, 14]        1,117,184
│    │    └─Bottleneck: 3-72                  --                        (recursive)
│    └─Sequential: 2-38                       --                        (recursive)
│    │    └─Bottleneck: 3-50                  --                        (recursive)
│    └─Sequential: 2-46                       --                        (recursive)
│    │    └─Bottleneck: 3-72                  --                        (recursive)
│    │    └─Bottleneck: 3-42                  [16, 1024, 14, 14]        1,117,184
│    │    └─Bottleneck: 3-74                  --                        (recursive)
│    │    └─Bottleneck: 3-44                  [16, 1024, 14, 14]        1,117,184
│    │    └─Bottleneck: 3-76                  --                        (recursive)
│    │    └─Bottleneck: 3-46                  [16, 1024, 14, 14]        1,117,184
│    │    └─Bottleneck: 3-78                  --                        (recursive)
│    └─Sequential: 2-34                       [16, 2048, 7, 7]          14,964,736
│    └─Sequential: 2-48                       --                        (recursive)
│    │    └─Bottleneck: 3-48                  [16, 2048, 7, 7]          6,039,552
│    │    └─Bottleneck: 3-86                  --                        (recursive)
│    └─Sequential: 2-38                       --                        (recursive)
│    │    └─Bottleneck: 3-50                  --                        (recursive)
│    │    └─Bottleneck: 3-51                  [16, 512, 28, 28]         --
│    │    └─Bottleneck: 3-54                  --                        (recursive)
│    └─Sequential: 2-48                       --                        (recursive)
│    │    └─Bottleneck: 3-86                  --                        (recursive)
│    └─Sequential: 2-38                       --                        (recursive)
│    │    └─Bottleneck: 3-54                  --                        (recursive)
│    │    └─Bottleneck: 3-55                  [16, 512, 28, 28]         --
│    │    └─Bottleneck: 3-56                  --                        (recursive)
│    │    └─Bottleneck: 3-57                  [16, 512, 28, 28]         --
│    │    └─Bottleneck: 3-58                  --                        (recursive)
│    └─Sequential: 2-39                       [16, 1024, 14, 14]        --
│    └─Sequential: 2-46                       --                        (recursive)
│    │    └─Bottleneck: 3-59                  [16, 1024, 14, 14]        --
│    │    └─Bottleneck: 3-64                  --                        (recursive)
│    └─Sequential: 2-48                       --                        (recursive)
│    │    └─Bottleneck: 3-86                  --                        (recursive)
│    └─Sequential: 2-46                       --                        (recursive)
│    │    └─Bottleneck: 3-64                  --                        (recursive)
│    └─Sequential: 2-48                       --                        (recursive)
│    │    └─Bottleneck: 3-86                  --                        (recursive)
│    └─Sequential: 2-46                       --                        (recursive)
│    │    └─Bottleneck: 3-64                  --                        (recursive)
│    │    └─Bottleneck: 3-65                  [16, 1024, 14, 14]        --
│    │    └─Bottleneck: 3-70                  --                        (recursive)
│    └─Sequential: 2-48                       --                        (recursive)
│    │    └─Bottleneck: 3-86                  --                        (recursive)
│    │    └─Bottleneck: 3-68                  [16, 2048, 7, 7]          4,462,592
│    │    └─Bottleneck: 3-88                  --                        (recursive)
│    └─Sequential: 2-46                       --                        (recursive)
│    │    └─Bottleneck: 3-70                  --                        (recursive)
│    │    └─Bottleneck: 3-71                  [16, 1024, 14, 14]        --
│    │    └─Bottleneck: 3-72                  --                        (recursive)
│    │    └─Bottleneck: 3-73                  [16, 1024, 14, 14]        --
│    │    └─Bottleneck: 3-74                  --                        (recursive)
│    │    └─Bottleneck: 3-75                  [16, 1024, 14, 14]        --
│    │    └─Bottleneck: 3-76                  --                        (recursive)
│    │    └─Bottleneck: 3-77                  [16, 1024, 14, 14]        --
│    │    └─Bottleneck: 3-78                  --                        (recursive)
│    └─Sequential: 2-47                       [16, 2048, 7, 7]          --
│    └─Sequential: 2-48                       --                        (recursive)
│    │    └─Bottleneck: 3-79                  [16, 2048, 7, 7]          --
│    │    └─Bottleneck: 3-86                  --                        (recursive)
│    │    └─Bottleneck: 3-88                  --                        (recursive)
│    │    └─Bottleneck: 3-86                  --                        (recursive)
│    │    └─Bottleneck: 3-88                  --                        (recursive)
│    │    └─Bottleneck: 3-84                  [16, 2048, 7, 7]          4,462,592
│    │    └─Bottleneck: 3-90                  --                        (recursive)
│    │    └─Bottleneck: 3-86                  --                        (recursive)
│    │    └─Bottleneck: 3-87                  [16, 2048, 7, 7]          --
│    │    └─Bottleneck: 3-88                  --                        (recursive)
│    │    └─Bottleneck: 3-89                  [16, 2048, 7, 7]          --
│    │    └─Bottleneck: 3-90                  --                        (recursive)
===============================================================================================
Total params: 23,508,032
Trainable params: 23,508,032
Non-trainable params: 0
Total mult-adds (G): 65.40
===============================================================================================
Input size (MB): 19.27
…
